7. RESULTS/1. TRAINED MODEL/TinyFC.onnx (onnx, 9267 bytes, 29 tensors)

fc_MatMul_W f4 [3, 32]
0	0x3f83b451	1.0289403
1	0x3febbb04	1.8416448
2	0x3efa3cab	0.4887441
3	0xbf3566d7	-0.70860046
4	0x3f720f1a	0.94554293
5	0x3cf7b05a	0.030235458
6	0xbec40695	-0.38286272
7	0x3c0ee262	0.008720966
8	0xbf98ef14	-1.1947961
9	0xbeec5563	-0.46158895
10	0x3e65210e	0.2237589
11	0x3de53d1d	0.11193297
12	0xbf281507	-0.65657085
13	0xbcb68d65	-0.022284219
14	0xbe15e781	-0.14639093
15	0x3e07e3a6	0.13270435
16	0x3f1a8d21	0.60371596
17	0x3f579028	0.8420434
18	0x3e697746	0.22799405
19	0xbdab4eea	-0.08364661
20	0xbb5dc7ca	-0.0033841007
21	0x3f8e0422	1.1095011
22	0xbf10ffbe	-0.5664023
23	0xbf12ed57	-0.573934
24	0x3f031ec2	0.5121881
25	0xbf6b5bac	-0.91936755
26	0x3edfabf0	0.43685865
27	0x3eb85d80	0.36008835
28	0xbc7d89dd	-0.015474764
29	0x3ec50390	0.3847928
30	0x3f4a02dd	0.7891062
31	0xbd7adf3d	-0.061248053
32	0xbf6c0d7f	-0.92208093
33	0xbfe88a33	-1.8167175
34	0xbf4fd839	-0.81189305
35	0x3e9d943f	0.30777165
36	0xbec3819a	-0.38184816
37	0x3ee135d8	0.43986392
38	0x3f17bf37	0.59276146
39	0x3eb5b72c	0.35491312
40	0x3f702c6d	0.9381779
41	0x3ea33e0d	0.31883278
42	0xbe925b1d	-0.2858514
43	0x3ec18aaa	0.37801105
44	0x3ee85f97	0.4538543
45	0xbd464fa0	-0.04841578
46	0xbe80b3e6	-0.25137252
47	0x3dcfa653	0.10139146
48	0xbf07e12e	-0.5307797
49	0xbf6d2300	-0.9263153
50	0xbf01142d	-0.5042141
51	0x3efbdc2f	0.49191424
52	0xbde6f29e	-0.11276744
53	0x3d982956	0.07429759
54	0x3ea4e32e	0.32204574
55	0x3f067fe0	0.5253887
56	0xbeb1126c	-0.34584367
57	0x3f33694d	0.7008255
58	0x3ca272ae	0.019830074
59	0xbd5f3032	-0.054489322
60	0x3da662d7	0.08124321
61	0xbf006647	-0.5015606
62	0xbf351645	-0.70737106
63	0x3d6ce2dc	0.057833537
64	0xbc536bea	-0.012904147
65	0xbde9f64d	-0.11423931
66	0xbf09688b	-0.53675145
67	0xbec6eecf	-0.38854071
68	0x3e6c68c3	0.23086838
69	0x3f31b862	0.6942197
70	0x3def7d4b	0.116938196
71	0xbc9a61b2	-0.018845413
72	0xbe1c9a1c	-0.15293163
73	0x3d872ed0	0.06600726
74	0xbf110226	-0.56643903
75	0x3ebb7c6d	0.36618367
76	0xbd04c2e4	-0.032412425
77	0xbe04b9a7	-0.12961446
78	0xbe481700	-0.19540024
79	0x3d908ff4	0.07058707
80	0xbf56b07b	-0.8386304
81	0xbf1daf29	-0.615954
82	0xbf33d963	-0.7025358
83	0x3e8185d6	0.2529742
84	0xbeaf110c	-0.34192693
85	0xbdebf52f	-0.115213744
86	0x3d030834	0.031990245
87	0x3e9e5a4c	0.30928266
88	0xbbe9d821	-0.0071363603
89	0xbe47fc31	-0.19529797
90	0x3e39e264	0.18152767
91	0xbf7093b7	-0.93975395
92	0x3f2ebacb	0.68253773
93	0xbeffda34	-0.49971163
94	0xbf2b9915	-0.6703046
95	0x3e619eb8	0.22033203

fc_Add_B f4 [32]
0	0xbea08b3a	-0.3135622
1	0x3ebb0ce5	0.36533275
2	0x3ec22894	0.37921584
3	0x3f149244	0.58035684
4	0xbf26b0ef	-0.6511373
5	0xbf18369c	-0.5945833
6	0x3e502e14	0.20330077
7	0x3e9ae02d	0.30249158
8	0x3e884956	0.2661845
9	0xbed1dddf	-0.40989587
10	0x3d580ccf	0.05274659
11	0xbf150f61	-0.5822659
12	0xbeb0b873	-0.34515724
13	0x3e485fa7	0.19567738
14	0x3ec5317c	0.38514316
15	0x3ddc5cc2	0.1075988
16	0xbdac6bea	-0.084190205
17	0x3e5c753e	0.215291
18	0x3eebb4e2	0.4603644
19	0xbef957c1	-0.48699763
20	0x3e2b5259	0.16730632
21	0xbf079a16	-0.5296949
22	0xbec20ff0	-0.37902784
23	0x3edaf2d7	0.42763397
24	0x3e74cf11	0.23907115
25	0x3f07710f	0.5290689
26	0xbf0f3a98	-0.5594878
27	0xbe71484a	-0.23562732
28	0xbe4b609d	-0.19861074
29	0x3ea091aa	0.31361133
30	0x3d688258	0.05676493
31	0x3ccb4228	0.02481182

fc_1_MatMul_W f4 [3, 8]
0	0x3d54889b	0.05188809
1	0x3dc9aade	0.098470435
2	0xbe170796	-0.14748988
3	0x3ec5ca18	0.38630748
4	0xbdc04d3e	-0.09389733
5	0x3e6d2a2f	0.23160623
6	0xbd0b6920	-0.034035802
7	0x3f011a3e	0.5043067
8	0x3d45fe9b	0.048338514
9	0x3e9abbbc	0.30221355
10	0xbe2fe92a	-0.17178789
11	0xbdd0e60c	-0.10200128
12	0xbdef6f84	-0.11691192
13	0x3e854023	0.26025495
14	0x3a3fdc14	0.0007318866
15	0x3f225bae	0.6342114
16	0x3e878403	0.26467904
17	0x3deecd6e	0.11660276
18	0x3e4630c0	0.19354534
19	0x3e7ed9db	0.24887793
20	0xbd0fe89f	-0.035133954
21	0x3e1a4996	0.15067133
22	0xbd1d0594	-0.038335398
23	0x3cb58f21	0.022162976

fc_1_Add_B f4 [8]
0	0xbf2cf71a	-0.6756455
1	0x3ef675c6	0.4813673
2	0xbf122928	-0.5709405
3	0x3fc6099e	1.5471685
4	0xbf97c427	-1.1856736
5	0x3f14ff38	0.5820193
6	0xc005196c	-2.0796766
7	0x3f4deafa	0.8043667

fc_2_MatMul_W f4 [3, 24]
0	0x3d6b300c	0.057418868
1	0xbc99351d	-0.018702084
2	0x3d4617d0	0.048362553
3	0x3b0ed903	0.002179683
4	0x3db672a9	0.089085884
5	0x3b8e5c94	0.0043445323
6	0xbda2ca44	-0.07948735
7	0x3a45983b	0.0007537638
8	0x3dbdf23c	0.09274718
9	0x3d1c0fac	0.038100883
10	0x3e1889dd	0.1489634
11	0xbdb86565	-0.090037145
12	0x3b0e7f0d	0.0021743209
13	0x3d52046a	0.05127374
14	0x3d4772f0	0.048693597
15	0xbcba2341	-0.022721888
16	0xbceba9aa	-0.028767426
17	0xb9d96684	-0.00041465845
18	0xbb45a606	-0.0030158772
19	0x3d809830	0.062790275
20	0x3dec1931	0.115282424
21	0x3c0ba5ad	0.008523387
22	0x3defbe30	0.11706197
23	0x3db2c984	0.08729842
24	0xbd28e333	-0.0412323
25	0xbc001b08	-0.007818945
26	0x3d701a7d	0.05861901
27	0xbcc25a4e	-0.023724701
28	0xbc72374d	-0.014783693
29	0xbe12090d	-0.14261265
30	0xbdd4fb21	-0.103994615
31	0x3c653b7b	0.013991232
32	0xbd9cdb5a	-0.076590255
33	0xbdaeaf08	-0.08529478
34	0xbe84ab0f	-0.25911757
35	0x3e437bf2	0.1909025
36	0xbb905678	-0.004404839
37	0xbe3d76e7	-0.18502389
38	0xbd05e01c	-0.03268443
39	0x3cee88d2	0.029117975
40	0x3cc2fb3c	0.023801439
41	0xbd85126f	-0.064976566
42	0xbccfc51e	-0.025362547
43	0xbe1ab67f	-0.15108679
44	0x3e096712	0.13418224
45	0x3b8946bc	0.0041893404
46	0xbdeeb9b1	-0.116565116
47	0xbd850246	-0.06494574
48	0x37cc54a3	2.4358107e-05
49	0xb749c79d	-1.202701e-05
50	0x39f5b381	0.00046863782
51	0xb7a88c65	-2.0092537e-05
52	0x3b3cd66b	0.0028814327
53	0x3793ba90	1.761064e-05
54	0xba8111a9	-0.0009847182
55	0x36ef714d	7.135945e-06
56	0xb8ba1e32	-8.8747955e-05
57	0xb6be43b8	-5.6703248e-06
58	0xbb06bbcd	-0.0020558715
59	0x3ae84901	0.0017721952
60	0xb7a863e4	-2.0073676e-05
61	0xb88536eb	-6.3521635e-05
62	0x39ab7a8d	0.0003270697
63	0x3870c673	5.740528e-05
64	0xb786ef9b	-1.608562e-05
65	0x399437fa	0.00028270466
66	0x37b09328	2.104936e-05
67	0x39d59d39	0.00040743666
68	0xb9919987	-0.00027770942
69	0x39d6eb21	0.00040992445
70	0xb89d3ef1	-7.498067e-05
71	0xba1482a6	-0.000566522

fc_2_Add_B f4 [24]
0	0x3f637add	0.8885935
1	0xbedabee5	-0.42723766
2	0xbe9a4317	-0.3012931
3	0xbe5b3c53	-0.2140973
4	0xbf408477	-0.75202125
5	0xbebb366d	-0.3656496
6	0x3e38d4e7	0.18049966
7	0xbd711136	-0.058854304
8	0x3e6eefe0	0.23333693
9	0xbd97153f	-0.07377099
10	0x3efb0a25	0.49031177
11	0xbf6bcde2	-0.9211103
12	0x3e534b3b	0.20634167
13	0xbef6f480	-0.48233414
14	0x3f24bc9a	0.64350283
15	0xbd472499	-0.048618887
16	0xbf2d432e	-0.67680633
17	0xbf10edfc	-0.56613135
18	0xbecbfc33	-0.3984085
19	0x3f6655d8	0.8997474
20	0x3d27150d	0.04079156
21	0xbf44768b	-0.7674338
22	0x3e5efa8f	0.21775268
23	0xbf87e2d7	-1.0616101

fc_3_MatMul_W f4 [3, 6]
0	0xbadd5ff9	-0.0016889564
1	0xbaf51bd1	-0.0018700307
2	0x3a9bff8a	0.0011901718
3	0x3b035619	0.0020040332
4	0xb92b5a5c	-0.00016341492
5	0xbae34c6b	-0.00173415
6	0x3a50819e	0.0007953885
7	0x3ab1041e	0.0013505255
8	0xba5f20d6	-0.0008511668
9	0xbae7d2a1	-0.0017686674
10	0x3974ffe0	0.00023364974
11	0x3b2e94c9	0.0026638976
12	0x3a8ec806	0.0010893352
13	0x3ac89211	0.001530232
14	0xba506aee	-0.0007950504
15	0xbae8cc36	-0.0017761055
16	0x393ed774	0.00018200075
17	0x3b3294ac	0.002724926

fc_3_Add_B f4 [6]
0	0xbf674b33	-0.9034912
1	0xbe05d8c8	-0.13070977
2	0x3fb02346	1.3760765
3	0xbf28ca9d	-0.65934163
4	0xbfa30f6a	-1.2739079
5	0x3c233ee3	0.009963724

fc_4_MatMul_W f4 [32, 16]
0	0x3da2fb30	0.079580665
1	0xbe4dc50d	-0.200947
2	0xbd9380ab	-0.07202276
3	0xbdc0ea15	-0.094196476
4	0x3e87f4d5	0.2655398
5	0x3e027fee	0.12744114
6	0x3e6b8522	0.23000005
7	0xbcc9ca7b	-0.024632683
8	0xbe07f09c	-0.13275379
9	0x3dd844d3	0.10560002
10	0x3e794f4e	0.24346659
11	0x3d816de1	0.06319786
12	0x3d96fcaf	0.07372414
13	0xbec55744	-0.3854314
14	0xbdb5af9b	-0.08871385
15	0xbd8024e6	-0.06257038
16	0x3e4da97c	0.20084184
17	0x3e376626	0.1791006
18	0xbd57ebf6	-0.052715264
19	0xbc0b1474	-0.008488763
20	0x3df703f5	0.120613016
21	0xbdf5663c	-0.1198239
22	0xbdb43169	-0.08798487
23	0xbd4df38c	-0.050281093
24	0x3e96c4b0	0.29446936
25	0x3a0c3e4d	0.000534986
26	0xbe76ca7e	-0.24100682
27	0x3e3f666c	0.18691415
28	0x3e434da7	0.19072591
29	0x3df08561	0.1174419
30	0x3e1cabe3	0.15299945
31	0xbc970450	-0.018434674
32	0x3ee096ce	0.43865055
33	0x3e2c2cf4	0.16814023
34	0xbd521815	-0.051292498
35	0xbe7670ef	-0.24066518
36	0x3e0a2723	0.13491492
37	0xbdc9a315	-0.098455586
38	0xbeb9364c	-0.36174238
39	0x3e68d265	0.22736509
40	0x3e16d68b	0.14730279
41	0xbd0b7a0e	-0.034051947
42	0xbe239221	-0.15973713
43	0xbdbc0f27	-0.091825776
44	0x3dd9b760	0.10630679
45	0x3e49b454	0.19697696
46	0xbeedfea1	-0.4648333
47	0xbe89ee69	-0.26939705
48	0x3d453f5c	0.048156127
49	0x3e6f0709	0.23342527
50	0xbd8bf099	-0.06833
51	0xbdfa6b9e	-0.122275576
52	0xbe4a8de4	-0.1978069
53	0xbe1b4809	-0.15164198
54	0xbde2be97	-0.110715084
55	0x3e368fbe	0.17828271
56	0x3ed9aabc	0.42513072
57	0xbe7af0b5	-0.24505885
58	0x3cdf84f4	0.027285077
59	0xbe878955	-0.26471964
60	0x3d7c67e8	0.06162253
61	0x3e52a7b4	0.20571786
62	0x3e39e851	0.18155028
63	0xbdc2ef78	-0.09518331
64	0xbe2bc705	-0.16775139
65	0xbec4cbdb	-0.3843678
66	0x3ce054f4	0.027384259
67	0x3e874f76	0.2642781
68	0x3c9cd617	0.019145055
69	0x3e294fcb	0.16534345
70	0x3f046e0e	0.5173043
71	0xbe98309f	-0.29724595
72	0xbf1cedea	-0.6130053
73	0x3d2af99c	0.041741952
74	0xbd6710e6	-0.0564126
75	0x3cc52e0c	0.024069808
76	0x3c9bbc51	0.019010695
77	0xbee973e4	-0.4559623
78	0x3e4a7fb1	0.19775273
79	0xbe1c3720	-0.15255404
80	0xbdddadbe	-0.10824154
81	0xbe7fd5d0	-0.24983907
82	0x3e815a84	0.2526437
83	0x3f2f543c	0.68487906
84	0xbe8189e2	-0.2530051
85	0x3e17fbfa	0.14842215
86	0x3eb026d9	0.34404638
87	0xbe9ef398	-0.31045222
88	0x3dbe3212	0.09286894
89	0x3eaf3814	0.34222472
90	0x3e93b756	0.28850812
91	0x3de1618b	0.11004933
92	0xbdf4f99c	-0.11961672
93	0xbe59c95b	-0.21268217
94	0xbe3fc7cd	-0.18728562
95	0x3e70e623	0.2352529
96	0x3dba4e04	0.090969115
97	0x3d79723c	0.060899958
98	0x3d2b1b5a	0.04177413
99	0xbe1026da	-0.1407732
100	0xbd213d65	-0.03936519
101	0xbe48d909	-0.19614042
102	0xbe512dcb	-0.20427625
103	0x3daa0edf	0.08303618
104	0x3e90ed7e	0.28306192
105	0x3de4abc8	0.11165577
106	0x3daabd3f	0.08336877
107	0xbc1e8e19	-0.009677433
108	0xbd10a436	-0.035312854
109	0x3dcc9a1a	0.0999033
110	0x3c9c6507	0.019091142
111	0x3ddedae9	0.108815975
112	0x3b8b5c0b	0.0042529157
113	0xbb9d3f85	-0.004798832
114	0xbd85eaa1	-0.065388925
115	0xbd47b298	-0.048754305
116	0xbd84bd50	-0.06481421
117	0xbd1761b5	-0.036958415
118	0xbc95686e	-0.018238273
119	0x3e07ccf5	0.13261779
120	0x3e2705df	0.16310833
121	0xbd5d99c8	-0.054101735
122	0x3dc4bae0	0.09605956
123	0xbdfa900b	-0.12234505
124	0x3dafc51d	0.08582518
125	0xbc1a191e	-0.0094054025
126	0xbc409cb6	-0.011756113
127	0x3d0e388e	0.034721904
128	0x3cd6c282	0.026215795
129	0x3dbaf61e	0.091289744
130	0xbe55b120	-0.20868349
131	0xbdf205ba	-0.118174985
132	0xbe2f3a5a	-0.17112103
133	0xbe36b3c0	-0.17842007
134	0xbe6c8808	-0.23098767
135	0x3ddb52c9	0.107091494
136	0x3d0a57b0	0.03377503
137	0xbdf69948	-0.12040955
138	0xbe845079	-0.25842646
139	0xbd8ff510	-0.07029164
140	0xbe2a2a43	-0.16617684
141	0x3ec6c749	0.38823918
142	0xbddfde36	-0.10931055
143	0x3dd4f31c	0.10397932
144	0x3a3169e0	0.0006767791
145	0xbda66da6	-0.081263825
146	0x3d72ac56	0.059246384
147	0x3d85d061	0.06533886
148	0xbcb61151	-0.022225054
149	0x3e055ea1	0.1302438
150	0x3d60a5a3	0.054845463
151	0xbd0eb26a	-0.034838118
152	0xbd8f3158	-0.069918334
153	0x3e316473	0.17323475
154	0x3e6dcaa8	0.23221838
155	0x3c91a4ac	0.017778717
156	0xbdc6cd79	-0.097071595
157	0xbc4686c6	-0.012117093
158	0x3caecc73	0.021337723
159	0xbe11f3e5	-0.14253195
160	0xbbb45093	-0.0055027693
161	0x3e7a1130	0.24420619
162	0xbdc316f2	-0.09525861
163	0xbe5cd2a2	-0.21564725
164	0x3dc56f80	0.096404076
165	0x3e25eca2	0.1620355
166	0x3b848749	0.0040444476
167	0x3e4c049d	0.19923635
168	0x3da5e158	0.080996215
169	0xbe4c1fc4	-0.19933993
170	0xbe884f78	-0.2662313
171	0x3d27d396	0.04097327
172	0xb8fdf186	-0.00012108967
173	0xbdc250ae	-0.09488045
174	0xbe8942c8	-0.26808763
175	0xbe54ebd2	-0.20793083
176	0xbe801a8b	-0.2502025
177	0xbea8b59e	-0.32951063
178	0x3e962d39	0.29331377
179	0xbd1156db	-0.035483222
180	0xbddd698b	-0.10811146
181	0x3dd52126	0.10406713
182	0x3db9e538	0.09076923
183	0x3bf873a3	0.0075821443
184	0x3e036d73	0.1283472
185	0x3e121555	0.1426595
186	0x3e3770a5	0.17914064
187	0x3eec2d65	0.46128383
188	0xbe365a4d	-0.17807885
189	0xbecc4f81	-0.39904407
190	0x3eb143e7	0.34622118
191	0x3d8fa3ac	0.0701364
192	0xbb33a07b	-0.0027408886
193	0xbcefa22a	-0.02925213
194	0x3ca399f2	0.019970868
195	0xbd98a5b4	-0.0745348
196	0x3aa1d468	0.0012346627
197	0x3d84cf15	0.0648481
198	0x3d5fcc26	0.05463805
199	0x3d0f076d	0.03491919
200	0x3d60cd5f	0.054883357
201	0x3cbf74ea	0.023371179
202	0x3e1b57b4	0.15170175
203	0xbd778ace	-0.06043511
204	0xbb2e98e4	-0.0026641423
205	0xbce5574a	-0.027995724
206	0x3e7edb3d	0.2488832
207	0xbdac81ba	-0.08423181
208	0x3cda8133	0.026672935
209	0x3d2e462d	0.042547394
210	0xbdd2ee8b	-0.10299405
211	0xbd828655	-0.06373278
212	0x3d1f9185	0.038957138
213	0x3c7ad163	0.015308711
214	0xbe5d8bed	-0.21635409
215	0x3ce7a973	0.028279042
216	0x3e948792	0.29009682
217	0xbda37985	-0.079821624
218	0xbd3bfcb6	-0.0458953
219	0xbd982166	-0.07428245
220	0xbba9ff5b	-0.0051879114
221	0x3e749c39	0.23887719
222	0xbef49a17	-0.4777381
223	0x3d12b98f	0.035821494
224	0x3dc34241	0.09534121
225	0x3e43a42f	0.191056
226	0xbd0e3903	-0.03472234
227	0x3e2c32d2	0.16816261
228	0xbd04a10d	-0.032380152
229	0xbd091061	-0.033462886
230	0xbcf567cf	-0.029956726
231	0xbd8db24f	-0.06918775
232	0x3ec55541	0.38541606
233	0xbee062e8	-0.4382546
234	0xbed4221f	-0.41432282
235	0x3d88b255	0.06674639
236	0x3dd21666	0.102581784
237	0x3e760534	0.24025422
238	0xbea589a6	-0.3233158
239	0xbd62e806	-0.055397056
240	0x3dd572b0	0.104222655
241	0x3d4bb4ce	0.049732976
242	0xbb8d01ee	-0.0043032086
243	0xbc990d7f	-0.018683193
244	0xbdb5446c	-0.08850941
245	0xbdf3b8fe	-0.11900519
246	0xbdcd9a7c	-0.10039231
247	0x3d6efc0f	0.05834585
248	0x3e9253af	0.2857947
249	0x3d9cba5b	0.07652732
250	0xbea8400e	-0.3286137
251	0xbd0516d2	-0.032492466
252	0xbc9c146a	-0.019052703
253	0x3d879f85	0.06622223
254	0xbdedd742	-0.11613323
255	0x3dbc00f2	0.09179868

fc_4_Add_B f4 [16]
0	0xbecbddc3	-0.39817628
1	0xbe9349be	-0.28767198
2	0x3eb2f3e5	0.34951702
3	0x3e2cf554	0.1689046
4	0x3eba43cb	0.36379847
5	0x3eb5c429	0.3550122
6	0x3f0d503c	0.5520055
7	0xbed171f2	-0.40907246
8	0xbead9cd7	-0.33908722
9	0x3eec800e	0.46191448
10	0x3e97e766	0.2966873
11	0x3eb984ba	0.36234075
12	0xbed418c2	-0.4142514
13	0xbede5a7a	-0.43428403
14	0x3e6d2316	0.23157915
15	0xbdc03ea2	-0.09386946

fc_6_MatMul_W f4 [16, 8]
0	0x3dda86e7	0.10670262
1	0xbe904f3c	-0.2818545
2	0xbf225ef8	-0.6342616
3	0x3dad8dde	0.08474325
4	0x3e7fd18b	0.24982278
5	0x3d81170e	0.063032255
6	0x3e2cc445	0.16871746
7	0xbdafadc0	-0.08578062
8	0xbeb2f249	-0.34950474
9	0xbd2dffdc	-0.042480335
10	0xbe301beb	-0.1719815
11	0xbea4ea5a	-0.32210046
12	0xbf18a8fc	-0.5963285
13	0x3c2ff478	0.010739438
14	0xbe8b23cb	-0.27175745
15	0x3e3eb753	0.1862462
16	0x3e15a1f2	0.14612558
17	0xbd64e31c	-0.05588065
18	0x3f39a66b	0.7251956
19	0x3c92b5de	0.017908987
20	0x3e05d3d3	0.13069086
21	0x3e3e9dbf	0.18614863
22	0x3d122f5c	0.035689697
23	0xbea6a8d7	-0.3255069
24	0x3e87bd30	0.26511526
25	0xbdbe96c2	-0.093060985
26	0x3d9c6746	0.07636885
27	0x3f103fa6	0.5634712
28	0x3ee44c55	0.44589487
29	0x3ecdff1c	0.40233696
30	0xbe910523	-0.28324232
31	0xbe268126	-0.16260204
32	0xbe186899	-0.14883651
33	0xbe19f223	-0.15033774
34	0x3e9bce38	0.3043077
35	0x3f0a22b6	0.53959215
36	0x3e72ea6f	0.23722242
37	0xbdd9ff33	-0.106443785
38	0xbedade5e	-0.42747778
39	0xbeb6e79d	-0.35723582
40	0xbea5f4ca	-0.32413322
41	0xbdd0d2c0	-0.10196447
42	0x3d23f1c2	0.04002548
43	0xbe1df3d5	-0.15425046
44	0xbe981c13	-0.2970892
45	0xbdb9d0ea	-0.0907305
46	0x3eda0fa5	0.4259006
47	0x3f04b503	0.518387
48	0x3dc24056	0.09484927
49	0xbe663ae5	-0.22483404
50	0xbe54cef6	-0.20782074
51	0xbe3bddba	-0.183463
52	0xbe80724f	-0.2508721
53	0x3e0b1d31	0.13585354
54	0x3c428a89	0.01187385
55	0xbe89802c	-0.268556
56	0xbf20bc1a	-0.6278702
57	0x3e8dd60f	0.27702376
58	0xbe0a1330	-0.13483882
59	0xbec612b2	-0.38686138
60	0xbe2dcf32	-0.1697357
61	0x3df4e96b	0.119585834
62	0x3e8a2e3b	0.26988396
63	0x3e724f1a	0.23662987
64	0xbe65c6f0	-0.2243917
65	0x3ef842be	0.4848842
66	0xbe94cf0a	-0.29064208
67	0x3d34a8b9	0.04410622
68	0x3e2cc86c	0.1687333
69	0x3e5b8a1d	0.21439405
70	0x3de05f49	0.10955674
71	0x3e3e4997	0.1858276
72	0x3ea0cedd	0.31407824
73	0xbecd9ea9	-0.4016011
74	0x3eed42db	0.4634007
75	0x3ed4a858	0.41534686
76	0x3d03706e	0.032089643
77	0x3d82e7b0	0.06391847
78	0xbf109032	-0.56470025
79	0x3dcc35a4	0.09971169
80	0x3e0405f9	0.12892903
81	0xbea4d053	-0.3219019
82	0x3f1b52a2	0.6067296
83	0xbea4d47c	-0.32193363
84	0xbd95e758	-0.07319516
85	0xbd617388	-0.05504182
86	0x3d7b08a2	0.06128753
87	0x3e554863	0.20828395
88	0x3e58c29b	0.21167986
89	0xbe703752	-0.23458603
90	0x3dc68635	0.09693567
91	0x3ef8d8bd	0.48602858
92	0x3e46ba84	0.19407088
93	0x3daf78b3	0.085679434
94	0xbf01e2c2	-0.5073663
95	0xbe878b65	-0.26473537
96	0x3dd85e0b	0.10564812
97	0xbeb29b02	-0.34883887
98	0x3e34e585	0.1766568
99	0x3ed913ed	0.42398015
100	0x3e85554c	0.2604164
101	0xbda7b0b3	-0.081879996
102	0xbf648116	-0.8925947
103	0xbe2b9e7b	-0.16759674
104	0x3de21cb0	0.11040628
105	0x3eab650c	0.3347553
106	0xbe9cb6bb	-0.30608162
107	0xbd5186e6	-0.05115404
108	0x3ee145b0	0.4399848
109	0xbd346d8c	-0.044049785
110	0x3cd161fa	0.025559414
111	0xbf02bcb7	-0.51069206
112	0x3e5d08bc	0.21585363
113	0xbeae4ec5	-0.3404447
114	0x3ea1e4ac	0.31619775
115	0xbeb6fbe7	-0.3573906
116	0x3eb00bff	0.34384152
117	0xbe764773	-0.24050693
118	0x3ead6ee3	0.33873662
119	0x3c5724bf	0.01313132
120	0x3f1af977	0.60536903
121	0xbea18c53	-0.3155237
122	0x3e5bac66	0.21452484
123	0xbe352715	-0.1769069
124	0x3e0d7709	0.1381494
125	0x3d98457f	0.0743513
126	0xbb525f35	-0.0032100205
127	0xbeee6205	-0.46559158

fc_6_Add_B f4 [8]
0	0xbf239e63	-0.63913554
1	0x3eb6e59a	0.35722047
2	0xbec47cd3	-0.38376483
3	0x3cedfb2e	0.029050436
4	0xbeb1aeff	-0.34703824
5	0x3e342a77	0.17594324
6	0x3e273cbe	0.16331765
7	0x3eb981c0	0.36231804

fc_8_MatMul_W f4 [8, 4]
0	0xbe8ca0fd	-0.27466574
1	0xbd9c8247	-0.07642036
2	0xbd67a15d	-0.056550372
3	0x3f4eabb0	0.80730724
4	0xbeeebda0	-0.46629047
5	0x3d639cee	0.05556958
6	0x3e325b6d	0.17417689
7	0x3f4d5bf3	0.8021843
8	0xbedc2940	-0.4300022
9	0xbe009c5e	-0.1255965
10	0xbd62e09d	-0.05538999
11	0x3f26c114	0.65138364
12	0x3e9db9ac	0.3080572
13	0x3c34870f	0.011018529
14	0xbd544e74	-0.05183263
15	0xbf939f89	-1.1533061
16	0x3ddad224	0.106846124
17	0xbcd95e0e	-0.026534107
18	0xbe30d5f5	-0.17269118
19	0xbe975fc1	-0.29565242
20	0xbd291e39	-0.04128859
21	0x3ca3b9b0	0.019986004
22	0x3b597af6	0.0033184863
23	0x3eed6c92	0.46371895
24	0xbef34b3f	-0.47518346
25	0x3d44517f	0.047929283
26	0x3c99f24b	0.018792292
27	0xbe021c5f	-0.12706135
28	0xbf5cd3ff	-0.8626098
29	0x3d8107b6	0.06300299
30	0x3d916293	0.0709888
31	0x3f9c4d28	1.2211046

fc_8_Add_B f4 [4]
0	0x3db795cd	0.08964119
1	0xbec10448	-0.3769858
2	0xbee657e0	-0.44988918
3	0xbe8d0665	-0.2754394

fc_13_MatMul_W f4 [8, 4]
0	0xbe462d7e	-0.19353291
1	0x3e154504	0.14577109
2	0x3e7b38f5	0.24533446
3	0x3f27a0d1	0.6547976
4	0xbf77d2a1	-0.9680577
5	0x3f1137fd	0.56726056
6	0x3f09f34c	0.53886867
7	0xbe47cc0e	-0.19511434
8	0xbddecafe	-0.108785614
9	0x3e887f7d	0.26659766
10	0x3dd72bd8	0.105064094
11	0x3eff17e4	0.49822915
12	0x3f04a170	0.51808834
13	0xbbbb1c55	-0.0057101646
14	0xbecfe709	-0.40605953
15	0x3e4a1d02	0.19737628
16	0x3ebc0b28	0.36727262
17	0xbef2bc40	-0.47409248
18	0xbf484b32	-0.7823974
19	0xbdd11691	-0.10209382
20	0xbef480a9	-0.4775441
21	0x3ee5750d	0.44815865
22	0x3efae858	0.4900539
23	0x3e8e4f1f	0.2779474
24	0xbec5dc64	-0.38644707
25	0x3cdb0b18	0.026738688
26	0x3f197c88	0.59955645
27	0x3dae43b5	0.08509008
28	0xbdf7ce02	-0.1209984
29	0x3ef48aa2	0.47762018
30	0x3ee8c102	0.45459753
31	0xbe86a5c2	-0.26298338

fc_13_Add_B f4 [4]
0	0x3e04d328	0.12971175
1	0xbe89e5b5	-0.26933065
2	0xbee6bdd4	-0.45066702
3	0xbe13ec5c	-0.14445633

fc_5_MatMul_W f4 [24, 12]
0	0x3b00fb73	0.0019681125
1	0xbb816d1d	-0.003949775
2	0xbb98b2ff	-0.00466001
3	0xbc247616	-0.0100379195
4	0xbc931675	-0.017955044
5	0xbdab13f7	-0.08353417
6	0x3d72a125	0.05923571
7	0x3c735029	0.014850655
8	0x3d8b5f16	0.068052456
9	0x3be69e47	0.007037911
10	0xbe50f599	-0.20406188
11	0xbc79ca70	-0.015246019
12	0xb9f453e6	-0.00046601816
13	0x3a6468dc	0.0008713135
14	0xbb00f4fc	-0.0019677272
15	0xba81e385	-0.0009909725
16	0xba33f07e	-0.0006864144
17	0x3a964d80	0.0011467189
18	0x39671c66	0.00022040456
19	0x3ab2e0d6	0.0013647329
20	0x3943d479	0.00018675801
21	0xbb4891a6	-0.0030604391
22	0xbaac624f	-0.0013151857
23	0x3a7e67ae	0.00097047805
24	0x3b6ffb4a	0.0036618286
25	0x3aebbaad	0.0017984711
26	0x3b9e157a	0.0048243375
27	0x3e06db60	0.13169622
28	0x3cdc5af2	0.026898835
29	0x3dffd664	0.12492064
30	0xbd9424e8	-0.07233602
31	0xbcf27f1c	-0.029601626
32	0xbde94bf1	-0.11391438
33	0xbb976837	-0.0046205777
34	0xbc0d1a14	-0.008612175
35	0x3c718ff2	0.014743792
36	0xb87a27b4	-5.964162e-05
37	0x394b41a8	0.00019384047
38	0xba661234	-0.0008776516
39	0xb9a0b357	-0.00030651197
40	0xba80d119	-0.0009827941
41	0xb8d10bce	-9.9680954e-05
42	0xb8ecf6bd	-0.000112993155
43	0x3a11be03	0.0005559625
44	0xb8d58bf5	-0.000101827005
45	0xba3ed95f	-0.00072803156
46	0x3a3bd15e	0.0007164682
47	0x37cbadce	2.428042e-05
48	0xbcbcd444	-0.023050435
49	0xba806570	-0.0009795856
50	0xbbc9bc2f	-0.0061564664
51	0x3d8fb8ac	0.07017645
52	0x3dc7b57b	0.097514115
53	0x3ec41f8f	0.38305327
54	0xbea39e0e	-0.31956524
55	0xbda2eac6	-0.07954936
56	0xbc993f55	-0.018706957
57	0x3d829f32	0.0637802
58	0x3df40376	0.119147226
59	0x3c192eaa	0.0093495045
60	0xbab2dadb	-0.0013645546
61	0x3a2599ec	0.00063171866
62	0xbad11611	-0.0015952011
63	0x3a4a2ae4	0.00077120797
64	0x3a6e0af3	0.0009080611
65	0x3a34ca64	0.00068966136
66	0xb8b3ee25	-8.579743e-05
67	0x3a3ed7c1	0.00072800746
68	0xbb7066e3	-0.003668242
69	0x3c7895f2	0.0151724685
70	0x3c3bd8b4	0.01146524
71	0xbb5435e2	-0.003238075
72	0x3b48fd5b	0.003066859
73	0xbaace639	-0.001319117
74	0x3c9c8aa2	0.019109074
75	0xbe155915	-0.14584763
76	0xbdb2e2b0	-0.087346435
77	0xbe6c44aa	-0.23073068
78	0x3e5cbfd9	0.21557559
79	0x3d5fc69b	0.054632764
80	0x3e974584	0.29545224
81	0x3d23e547	0.040013578
82	0xbd86540b	-0.06558999
83	0xbcb24d7c	-0.021765463
84	0xb9e3dec8	-0.000434628
85	0x39f22f22	0.00046192954
86	0xb9a8f890	-0.0003222865
87	0xb996db50	-0.0002877363
88	0x3a5bd4bf	0.00083858887
89	0x3a9670f2	0.0011477752
90	0x39156018	0.00014245545
91	0x3921c05a	0.00015425813
92	0x38631eea	5.414981e-05
93	0x39e7534d	0.00044121817
94	0x3bc520a7	0.0060158554
95	0xb9b6f285	-0.00034894436
96	0x3b04ea17	0.002028113
97	0xbafed08e	-0.0019440816
98	0x3af11f74	0.0018396215
99	0x3a7f4193	0.00097372493
100	0xbae0d166	-0.0017152249
101	0xbb768f5a	-0.0037622065
102	0xba77569d	-0.00094352086
103	0xbb214498	-0.0024607535
104	0x3b983702	0.0046452293
105	0xbabf0dec	-0.0014576293
106	0x3a5e0870	0.0008469885
107	0xbaac2680	-0.0013134032
108	0x3a952b82	0.0011380764
109	0xba8c3b9a	-0.0010698915
110	0x378b1e5c	1.6584228e-05
111	0xbc9b215e	-0.01893681
112	0xbb20272d	-0.0024437413
113	0xbc664d33	-0.014056492
114	0x3c571049	0.013126441
115	0xba999316	-0.0011716809
116	0x3d18645a	0.037205078
117	0xb90f830a	-0.00013686359
118	0xbc6970ae	-0.014248056
119	0xbb286c53	-0.0025699332
120	0x3d9e01ce	0.07715188
121	0xb9c3514f	-0.00037253878
122	0xbc1d811c	-0.009613302
123	0xbe801acc	-0.25020444
124	0xbd9a7e8b	-0.075436674
125	0xbe03af89	-0.1285993
126	0x3e74ac65	0.23893888
127	0x3d18d7d4	0.037315205
128	0x3d959ffb	0.073059045
129	0xbcdb28c3	-0.026752835
130	0x3e3f0f5f	0.18658207
131	0x3af6fa8e	0.0018842982
132	0xbc3be1ae	-0.01146738
133	0x3b9c856b	0.004776647
134	0x3c8e0cf1	0.017340155
135	0x3dd5636b	0.10419353
136	0x3cf8f485	0.030390033
137	0x3e3a7bc6	0.18211278
138	0xbcd53ba9	-0.026029425
139	0xbc74795f	-0.014921515
140	0x3cb448a3	0.022007292
141	0xbc73434c	-0.014847588
142	0xbb7bce3f	-0.0038422493
143	0x3d1f6362	0.03891314
144	0x3a8cc210	0.0010738987
145	0xba8427aa	-0.0010082622
146	0x3a81e7df	0.0009911022
147	0xb9ac4279	-0.00032855922
148	0xbb035c11	-0.002004389
149	0xbae6176f	-0.0017554591
150	0xb9107bbd	-0.00013779006
151	0x3a80aaae	0.0009816492
152	0x3aa49cfd	0.0012558993
153	0x3af2c784	0.0018522595
154	0xba33bf3d	-0.0006856805
155	0x3a14ee5d	0.0005681271
156	0xbac0f819	-0.0014722376
157	0x3a006547	0.0004897904
158	0xbb09c851	-0.002102394
159	0x3c2c8f7a	0.010532254
160	0x3ac72cf1	0.0015195889
161	0x3b5beffa	0.0033559785
162	0xba03cc1c	-0.0005027668
163	0xb9f5b352	-0.00046863646
164	0xbd48d660	-0.04903257
165	0x3c3b136e	0.011418207
166	0x3bad5558	0.005289715
167	0x3a1406d4	0.00056467694
168	0x3abaa26f	0.0014239083
169	0xbb20b782	-0.0024523442
170	0x3b22ea5e	0.0024858932
171	0xbd08cb19	-0.033396814
172	0xbb59ab88	-0.0033213813
173	0x3c59bdee	0.013289912
174	0x3b4dd688	0.0031408388
175	0x3a633b7b	0.0008668226
176	0x3d8accd4	0.06777349
177	0x3bf0b0c8	0.0073452927
178	0xbca9b659	-0.020716833
179	0xbb4fb002	-0.0031690602
180	0xb96607c6	-0.00021937405
181	0x39c49354	0.000374938
182	0xb9ab666f	-0.0003269198
183	0xb997d8e4	-0.0002896256
184	0x394cda96	0.00019536386
185	0x3a0087db	0.00049030565
186	0x39493ec3	0.00019192234
187	0x3a22112f	0.000618237
188	0x37d59280	2.5459798e-05
189	0x3c210ec5	0.0098301815
190	0xbaeaba84	-0.0017908369
191	0x3a47de1d	0.0007624345
192	0xbb88fc50	-0.0041804686
193	0x3bb4073b	0.005494026
194	0xbb392d52	-0.0028255773
195	0x3b885c59	0.0041613993
196	0x3b876d4c	0.0041329022
197	0x3c445168	0.011982299
198	0xbc6cf26f	-0.014462098
199	0x3ba875c2	0.005140991
200	0xbd292b10	-0.041300833
201	0xbc9669ef	-0.01836106
202	0x3c6b0ed3	0.014346796
203	0x3b725a6e	0.003698017
204	0xbb81709d	-0.003950192
205	0x3b3efb28	0.00291414
206	0xb9b9918c	-0.0003539439
207	0x3ce016e1	0.02735466
208	0x3bdee906	0.006802681
209	0x3d25d5c5	0.04048707
210	0xbd2c25f0	-0.042028368
211	0xba049693	-0.00050578377
212	0xbdd86af9	-0.105672784
213	0x3cb8fbb5	0.02258096
214	0x3ae32735	0.001733041
215	0x3b902e7f	0.004400074
216	0xbb28ea75	-0.0025774513
217	0x3ae1ccdc	0.001722719
218	0xbb29fee3	-0.0025939278
219	0x3ce96901	0.028492453
220	0x3b899e6c	0.0041997936
221	0x3d1aee06	0.037824653
222	0xbd4ba75d	-0.049720157
223	0xbbef51df	-0.007303461
224	0xbc3cc38a	-0.0115212295
225	0x3be76359	0.0070614037
226	0x3d111712	0.035422392
227	0xba93a680	-0.0011264831
228	0x3c58870b	0.0132157905
229	0xbb46c594	-0.0030330168
230	0xbd4f2379	-0.05057094
231	0x3ae63fed	0.0017566659
232	0xbd68be3f	-0.056822058
233	0xbc425c77	-0.011862866
234	0x3dadfc78	0.0849542
235	0x3cbd9348	0.023141518
236	0x3e0f7db7	0.140128
237	0x3cac6a62	0.021046821
238	0xbdcb70e8	-0.099336445
239	0xbb5c42d7	-0.0033609176
240	0xbaa17051	-0.0012316798
241	0xba113758	-0.0005539558
242	0x3a74b989	0.0009335508
243	0x3b3bb998	0.0028644558
244	0x3b83b4d0	0.0040193573
245	0x3b6aefe7	0.003584856
246	0xba84e5f6	-0.0010139334
247	0xbac3efd6	-0.0014948796
248	0xbd0056a9	-0.031332646
249	0xbc3293c2	-0.010899486
250	0x3d800612	0.06251158
251	0x3a630949	0.00086607464
252	0x3c0c48e8	0.008562304
253	0x3b297347	0.0025856064
254	0x3cdcdb25	0.026959965
255	0x3e2af3b4	0.16694528

fc_5_Add_B f4 [12]
0	0xbe42302e	-0.18963692
1	0xbed87c61	-0.42282394
2	0x3e7c4d9e	0.24638984
3	0x3eef175f	0.46697518
4	0x3e9601d7	0.2929828
5	0x3effe411	0.49978688
6	0xbeccd7ed	-0.40008488
7	0xbe68b784	-0.22726256
8	0xbf2ad59e	-0.66732204
9	0x3e940c84	0.289158
10	0x3e490c5c	0.19633621
11	0x3d8a95cb	0.06766852

fc_7_MatMul_W f4 [12, 6]
0	0x3e2c0fc2	0.16802886
1	0x3dca2ba2	0.098716035
2	0x3dc34dbd	0.09536312
3	0x3eb5b64d	0.35490647
4	0x3e5670c1	0.2094145
5	0x3d0a2195	0.033723433
6	0xbe8ed257	-0.27894852
7	0xbdc7fc90	-0.09764969
8	0x3e22ad1f	0.15886353
9	0xbe55c289	-0.2087499
10	0x3e2c2592	0.16811207
11	0xbe135539	-0.14387979
12	0x3d0af9ac	0.033929512
13	0x3d3df88a	0.046379603
14	0x3d80f77f	0.06297206
15	0x3e3e1bbc	0.18565267
16	0xbc049186	-0.008091336
17	0x3d37ff17	0.044921007
18	0x3e4a0a7c	0.19730562
19	0x3e170715	0.14748795
20	0x3d0bfed9	0.03417859
21	0x3e26b36c	0.16279382
22	0x3e0283a6	0.12745532
23	0x3da51957	0.08061474
24	0xbdaa065b	-0.083019935
25	0xbc891592	-0.016733918
26	0x3d62ff6f	0.05541938
27	0xbf3c5177	-0.73561805
28	0x3c1c6d62	0.009547563
29	0xbd9257ba	-0.07145639
30	0xbef2dc64	-0.4743377
31	0x3d1a1cd7	0.03762516
32	0xbc8e12b7	-0.017342908
33	0xbf0038f6	-0.50086915
34	0xbce2f0e7	-0.027702762
35	0xbe6aa1f7	-0.22913347
36	0xbe256a40	-0.16153812
37	0xbe4863d4	-0.19569331
38	0x3d722dad	0.05912559
39	0xbdf7bd72	-0.12096681
40	0xbbbce171	-0.0057641794
41	0xbce44ac7	-0.027867688
42	0xbeae047e	-0.33987802
43	0xbcb9754c	-0.02263894
44	0xbe2bd0cd	-0.1677887
45	0xbd8db6a0	-0.069195986
46	0xbda642c3	-0.081182025
47	0xbc0b393d	-0.008497533
48	0xbd9473d8	-0.07248658
49	0xbe61ce19	-0.22051276
50	0x3e14579d	0.14486547
51	0xbd88ba2e	-0.06676136
52	0xbdb2306f	-0.08700644
53	0xbdf4f5b1	-0.119609244
54	0xbecfe394	-0.40603316
55	0x3a47b7f3	0.0007618658
56	0xbaa86264	-0.0012846706
57	0x3db62e68	0.0889557
58	0x3d1a6e40	0.0377028
59	0x3d782371	0.060580675
60	0x3cd03c6a	0.025419433
61	0x3d1ac5ae	0.03778618
62	0xbde0cce3	-0.10976579
63	0x3eb55759	0.35418203
64	0xbcb436e4	-0.02199883
65	0x3d7e492a	0.062081493
66	0xbe7adb6c	-0.24497765
67	0x3d603cd3	0.054745506
68	0xbcc4d854	-0.024028935
69	0xbd5f3233	-0.054491233
70	0xbdd8ef44	-0.10592511
71	0xbdca42a6	-0.098759934

fc_7_Add_B f4 [6]
0	0xbf376884	-0.71643853
1	0xbeda7a5c	-0.42671478
2	0x3e7bca8a	0.24588981
3	0xbf148531	-0.58015734
4	0xbf040111	-0.5156413
5	0xbee0122a	-0.43763858

fc_9_MatMul_W f4 [6, 3]
0	0xbe32d79b	-0.1746506
1	0xbd111c5e	-0.035427444
2	0x3c68295c	0.014170017
3	0xbcb611a0	-0.022225201
4	0xbcd21112	-0.025642905
5	0x3bcadf62	0.00619118
6	0x3dbb58fe	0.09147833
7	0x3d7895b1	0.06068963
8	0x3ce67c04	0.028135307
9	0x3da7b024	0.08187893
10	0x3c72bac2	0.014815034
11	0x3c8a854b	0.016909262
12	0xbcfabe68	-0.03060837
13	0xbcf7e681	-0.03026128
14	0xbd153e88	-0.036436588
15	0xbd1fbfc6	-0.03900125
16	0xbccfdf8b	-0.025375148
17	0x3d55052d	0.05200689

fc_9_Add_B f4 [3]
0	0xbeac5b93	-0.33663616
1	0xbd9a6411	-0.075386174
2	0x3ed443fb	0.41458115

fc_14_MatMul_W f4 [6, 3]
0	0xbe20ec8d	-0.15715237
1	0x3f073746	0.52818716
2	0xbe1db5dd	-0.15401407
3	0x3d57039a	0.05249367
4	0x3e0331cd	0.12811966
5	0x3e5d2f81	0.21600153
6	0xbe343644	-0.17598826
7	0x3ebf1a07	0.37324545
8	0x3e2aeef9	0.16692723
9	0x3ec873be	0.39150804
10	0xbea14ddd	-0.31504717
11	0xbf2035cd	-0.62582093
12	0xbcf65f77	-0.030074818
13	0xbe7634d0	-0.24043584
14	0xbe277cca	-0.16356197
15	0x3e1d07e9	0.15335049
16	0xbddd29df	-0.10799002
17	0xbd8e0073	-0.069336794

fc_14_Add_B f4 [3]
0	0xbe950ad4	-0.29109824
1	0xbc68b9f7	-0.014204494
2	0x3ed7a07c	0.42114627

fc_11_MatMul_W f4 [4, 2]
0	0x3e9e4d85	0.30918518
1	0xbe3a5a0c	-0.18198413
2	0xbed47390	-0.41494417
3	0xbe97e86c	-0.2966951
4	0x3f70803e	0.9394568
5	0x3e9829e5	0.29719463
6	0xbe28960b	-0.16463487
7	0x3ec1cfcf	0.37853858

fc_11_Add_B f4 [2]
0	0xbe99a292	-0.30006844
1	0xbe066090	-0.13122773

fc_12_MatMul_W f4 [3, 2]
0	0x3ed015c1	0.40641597
1	0x3e3334f9	0.17500676
2	0x3f0ca0d6	0.54932916
3	0x3e7e9603	0.24861912
4	0x3e6664ca	0.22499385
5	0x3de9da88	0.11418635

fc_12_Add_B f4 [2]
0	0xbe99a292	-0.30006844
1	0xbe066090	-0.13122773

fc_10_MatMul_W f4 [2, 1]
0	0x3d7cd85b	0.06172977
1	0xbdfbb00c	-0.12289438
