7. RESULTS/2. HYPER PARAMETERS OPTIMIZATION/HPOTinyFC.onnx (onnx, 4797 bytes, 26 tensors)

fc_MatMul_W f4 [3, 20]
0	0xbe52236c	-0.20521325
1	0xbe8fa9ce	-0.28059238
2	0x3e605a4e	0.21909449
3	0xbeb1ddfa	-0.34739667
4	0x3f500e4c	0.81271815
5	0xbee97da0	-0.45603657
6	0xbeffb9d5	-0.49946466
7	0x3ebbaf96	0.366574
8	0xbf18f50b	-0.59748906
9	0xbf82a800	-1.020752
10	0xbfa98579	-1.3243858
11	0x3d3c0881	0.045906547
12	0x3dd49ae2	0.10381104
13	0xbfdfdc44	-1.7489095
14	0x3e7b1d96	0.24523005
15	0x3f2ed8d8	0.6829963
16	0xbdcb07b5	-0.099135794
17	0xbe7f364b	-0.24923055
18	0x3e1ebb70	0.15501189
19	0xbebc650f	-0.36795852
20	0x3df04f79	0.11733908
21	0x3f22889e	0.6348971
22	0xbe3f4091	-0.18676974
23	0x3ecdc3ad	0.4018835
24	0xbf1d12f3	-0.6135704
25	0x3e1bf835	0.15231402
26	0x3f1a244d	0.6021164
27	0x3f4d4eeb	0.80198544
28	0xbf758e74	-0.9592049
29	0xbeb3525d	-0.35023776
30	0x3f255c7f	0.6459426
31	0x3cb4f780	0.022090673
32	0xbeaf4bd2	-0.34237534
33	0x3f122453	0.57086676
34	0xbeece766	-0.46270293
35	0xbf517775	-0.818229
36	0x3e2bf0d2	0.16791084
37	0xbee16753	-0.44024143
38	0xbf17626c	-0.59134555
39	0x3f22f0a4	0.6364844
40	0xbd559f24	-0.05215372
41	0x3d991542	0.07474758
42	0x3db39305	0.08768276
43	0x3d39724f	0.04527503
44	0xbdb19d09	-0.0867253
45	0xbdbb0e0d	-0.09133539
46	0x3d782f13	0.06059177
47	0x3db1bad9	0.086782165
48	0x3cc8fe10	0.024535209
49	0x3cc30693	0.023806846
50	0xbce245ab	-0.02762111
51	0x3bfff08e	0.007810659
52	0xbcf78e07	-0.030219091
53	0x3d4758ac	0.04866855
54	0x3d123508	0.035695106
55	0xbccdbb58	-0.025113747
56	0x3e3e1e42	0.1856623
57	0xbda06271	-0.07831276
58	0xbeab81dc	-0.33497512
59	0x3d35a5ab	0.044347446

fc_Add_B f4 [20]
0	0x3e173855	0.14767583
1	0x3e3f7bbf	0.18699549
2	0x3d218faa	0.03944365
3	0xbeb160ea	-0.34644252
4	0x3e96a642	0.2942372
5	0x3e8e8864	0.27838433
6	0x3e51904c	0.20465201
7	0xbed77aa0	-0.42085743
8	0x3ef00677	0.46879932
9	0x3e7ce725	0.2469755
10	0x3ead9cf3	0.33908805
11	0xbf2359a6	-0.6380867
12	0x3f350aad	0.70719415
13	0xbd059b4d	-0.03261881
14	0x3f0ed8e9	0.5579973
15	0xbe39cf85	-0.18145569
16	0xbe6e2dce	-0.2325966
17	0x3f01e71c	0.5074327
18	0x3ef6fbff	0.48239133
19	0xbedf3819	-0.43597487

fc_4_MatMul_W f4 [20, 4]
0	0x3e0cb561	0.13741066
1	0xbe903b09	-0.2817004
2	0x3d81fd25	0.063471116
3	0x3c745cdd	0.014914718
4	0xbd6c4eea	-0.057692446
5	0xbdf4d55d	-0.11954758
6	0x3eba92cb	0.3644012
7	0x3db3f820	0.087875605
8	0x3cb41cd8	0.02198641
9	0xbcc087a9	-0.023502188
10	0x3d884510	0.066537976
11	0xbdf825ea	-0.121166065
12	0xbafabde8	-0.0019130083
13	0x3e84553f	0.25846288
14	0x3de2cb34	0.11073914
15	0x3e19e0ca	0.15027156
16	0xbd7c744b	-0.061634343
17	0xbebe0c86	-0.3711893
18	0x3d47e3b9	0.048801158
19	0xbe04f532	-0.1298416
20	0xbd8fd883	-0.07023718
21	0xbecce9eb	-0.40022215
22	0x3ce2910f	0.02765706
23	0xbd418cfc	-0.047253594
24	0x3d8e2683	0.06940939
25	0xbe2cd9a5	-0.168799
26	0x3e9df75f	0.30852792
27	0x3e966b5e	0.2937879
28	0xbe15057a	-0.1455287
29	0x3ebea619	0.37236097
30	0xbda3d70b	-0.080000006
31	0xbd4f9fc5	-0.050689477
32	0x3c2cb815	0.010541935
33	0x3de1086b	0.10987934
34	0xbe0162b0	-0.12635303
35	0xbe2100d1	-0.15722968
36	0xbe2f88fd	-0.171421
37	0xbe3d2711	-0.18471934
38	0x3e164b1a	0.14677086
39	0x3d4b577b	0.049643975
40	0x3dd4d920	0.10392976
41	0x3e269fa1	0.16271831
42	0xbe6bc0e7	-0.23022805
43	0x3e114daa	0.14189783
44	0xbd6c7ea9	-0.05773798
45	0x3e579a6b	0.21055
46	0xbe02d24d	-0.12775536
47	0x3d8f46bf	0.069959156
48	0xbd04302c	-0.032272503
49	0xbe8f4e8d	-0.27989617
50	0x3de1106a	0.10989459
51	0xbe50b800	-0.2038269
52	0xbdbbe83e	-0.09175156
53	0xbf585a1e	-0.8451251
54	0x3ebd5766	0.36980742
55	0xbcc1dbe9	-0.023664432
56	0xbd9c3c92	-0.0762874
57	0xbe0644d4	-0.13112193
58	0x3d7c026c	0.061525747
59	0xbefa89b0	-0.48933172
60	0xbe78d0cc	-0.242984
61	0x3e22f48d	0.15913601
62	0xbe89ce9b	-0.2691544
63	0xbea09e8a	-0.31370956
64	0x3c5c9c44	0.013464991
65	0x3e21712d	0.1576583
66	0x3e8bdba7	0.2731602
67	0xbe7e1213	-0.24811582
68	0xbeec07dc	-0.46099746
69	0xbee38b58	-0.44442248
70	0xbd8128be	-0.06306599
71	0xbf088ca4	-0.533396
72	0xbc39f17a	-0.011349076
73	0xbef1b4b9	-0.47208193
74	0xbedc558c	-0.43034017
75	0x3f012a9e	0.50455654
76	0xbd7ae7ce	-0.061256222
77	0xbe514028	-0.2043463
78	0xbe6c1860	-0.23056173
79	0xbd68cfa6	-0.056838654

fc_4_Add_B f4 [4]
0	0xbcd32ca7	-0.025778128
1	0x3e956e0d	0.29185525
2	0xb8597472	-5.184528e-05
3	0x3c16ad22	0.0091965515

fc_6_MatMul_W f4 [4, 6]
0	0x3ec027c5	0.37530342
1	0x3efa31fb	0.48866257
2	0xbdef1f06	-0.11675839
3	0xbdef761f	-0.11692452
4	0xbee9a97f	-0.45637128
5	0xbf106db5	-0.564174
6	0x3dcca83e	0.09993027
7	0x3f01aebf	0.50657266
8	0xbefab95f	-0.48969552
9	0x3ddae979	0.106890626
10	0xbd245432	-0.040119357
11	0x3f7bb40d	0.9832161
12	0x3ed46415	0.41482607
13	0x3f51e598	0.8199096
14	0xbf217b0a	-0.6307837
15	0xbe27230d	-0.16321965
16	0xbd0907cd	-0.033454705
17	0x3f2856f1	0.6575766
18	0x3dafea0e	0.08589564
19	0xbc5690c7	-0.013096041
20	0xbde246de	-0.11048673
21	0xbf201eb1	-0.6254683
22	0x3e4de912	0.2010844
23	0x3f3b5d3c	0.7318914

fc_6_Add_B f4 [6]
0	0xbeaa95cc	-0.3331741
1	0xbdd23d83	-0.10265639
2	0xbb501a3f	-0.0031753925
3	0xbe47968e	-0.19491026
4	0x3e0b6fe4	0.13616902
5	0x3e1242d9	0.14283313

fc_1_MatMul_W f4 [3, 6]
0	0xbf77bb0e	-0.967698
1	0x3ed72c18	0.42025828
2	0xbf041b65	-0.516043
3	0xbe7001f7	-0.2343825
4	0xbe3b008c	-0.18261927
5	0x3e0b95f7	0.13631426
6	0x3f8704c9	1.0548335
7	0xbeedffdc	-0.46484268
8	0xbf2a598c	-0.6654289
9	0x3ee4d921	0.44696906
10	0x3ec326da	0.3811558
11	0x3cd8a2a8	0.026444748
12	0x3f8c3420	1.0953407
13	0xbddf951d	-0.10917113
14	0x3e1b5203	0.15168004
15	0x3feadcac	1.8348594
16	0x3f139316	0.5764631
17	0xbe019255	-0.12653477

fc_1_Add_B f4 [6]
0	0xbda77f01	-0.08178521
1	0x3dba78a0	0.09105039
2	0xbf15711c	-0.58375716
3	0xbe6f588b	-0.2337362
4	0xbf427743	-0.7596323
5	0xbf3eaacb	-0.7447936

fc_2_MatMul_W f4 [3, 5]
0	0x3f15b00c	0.5847175
1	0xbf1c19d1	-0.6097689
2	0xbf79892a	-0.9747492
3	0x3e494f4c	0.19659156
4	0x3ea7de0d	0.327866
5	0xbe86f555	-0.26359048
6	0xbbb84336	-0.0056232465
7	0xbe86ace5	-0.26303783
8	0x3e138925	0.14407785
9	0x3e4e0aa6	0.2012125
10	0xbc1883d5	-0.009308775
11	0xbb2dbb01	-0.0026509168
12	0x3d6bf071	0.05760235
13	0x3b54de70	0.0032481216
14	0x3d9773a4	0.073951036

fc_2_Add_B f4 [5]
0	0xbf0565b7	-0.5210833
1	0xbf016a20	-0.5055256
2	0xbe675068	-0.22589266
3	0x3f1dd702	0.616562
4	0x3ed9178d	0.4240078

fc_5_MatMul_W f4 [5, 1]
0	0x3df7ed19	0.1210577
1	0x3ec11410	0.3771062
2	0xbf65f3df	-0.8982524
3	0xbec0a733	-0.37627563
4	0xbe3618db	-0.17782919

fc_7_MatMul_W f4 [1, 5]
0	0x3db09a89	0.08623225
1	0xbfdac83b	-1.7092355
2	0x3f191e22	0.59811604
3	0xbe1b5bed	-0.15171786
4	0xbdbe7790	-0.093001485

fc_7_Add_B f4 [5]
0	0xbe9a4163	-0.3012801
1	0xbf0c3187	-0.5476307
2	0xbe3b87cf	-0.18313526
3	0x3dbb61a8	0.09149486
4	0xbe61d249	-0.22052874

fc_3_MatMul_W f4 [3, 5]
0	0xbf33fb4a	-0.7030531
1	0x3e07bca4	0.13255554
2	0xbde03869	-0.109482594
3	0xbef8ea69	-0.4861634
4	0x3e23523b	0.15949337
5	0x3f5537a7	0.83288044
6	0x3eadf105	0.33972946
7	0xbe6719be	-0.22568414
8	0xbe96e86e	-0.29474205
9	0xbf90737c	-1.1285243
10	0xbe1c140d	-0.15242024
11	0xbe8c810a	-0.274422
12	0xbd7ae6a7	-0.061255123
13	0xbaad31e9	-0.0013213727
14	0x3db6fa28	0.08934432

fc_3_Add_B f4 [5]
0	0xbe0b227d	-0.13587375
1	0xbe569629	-0.20955719
2	0x3ca76718	0.020434901
3	0xbecc9012	-0.39953667
4	0xbe7ab6dd	-0.2448382

fc_8_MatMul_W f4 [6, 3]
0	0x3e903675	0.28166547
1	0xbf08e49c	-0.5347383
2	0xbf7eb77f	-0.9949874
3	0xbf2c3f98	-0.67284536
4	0x3bf41266	0.0074484823
5	0x3f047661	0.5174313
6	0xbf1791a3	-0.592066
7	0x3eef3626	0.46721
8	0x3eb1b2e1	0.34706786
9	0x3f00d719	0.5032821
10	0xbec00e97	-0.3751113
11	0xbf56e848	-0.83948183
12	0x3e1d1ca5	0.15342958
13	0xbf0f7125	-0.5603202
14	0xbe7d686d	-0.24746867
15	0x3f6a5d64	0.9154875
16	0x3ed1ae00	0.40953064
17	0x3e5dcc32	0.21659926

fc_8_Add_B f4 [3]
0	0x3cacf315	0.021112004
1	0x3d9963ff	0.07489776
2	0xbe95c72a	-0.29253513

fc_13_MatMul_W f4 [6, 3]
0	0x3ed1cab7	0.40974972
1	0x3e67e82d	0.22647162
2	0xbe42c720	-0.19021273
3	0x3e675c97	0.22593914
4	0x3e61ee49	0.22063555
5	0x3e8194b8	0.25308776
6	0x3eb2d179	0.3492544
7	0xbe3cc262	-0.18433526
8	0x3eec6a7a	0.46174985
9	0x3e610faf	0.21978639
10	0x3f125374	0.5715859
11	0x3ecd0096	0.4003951
12	0xbefbf7cd	-0.49212494
13	0xbea33cf2	-0.31882435
14	0x3f1a65bd	0.6031149
15	0x3d5f56c7	0.054526117
16	0xbececcc1	-0.4039059
17	0xbd704336	-0.058657847

fc_13_Add_B f4 [3]
0	0x3dac0929	0.08400185
1	0xbe00fcc1	-0.12596418
2	0x3dc14143	0.09436276

fc_9_MatMul_W f4 [5, 1]
0	0xbe1f2c7b	-0.15544312
1	0x3f1445e7	0.5791916
2	0x3e05eace	0.13077852
3	0x3ed5f7b1	0.41790536
4	0xbf08c238	-0.53421354

fc_14_MatMul_W f4 [5, 1]
0	0x3ea3d4f8	0.3199842
1	0xbe700d2d	-0.23442526
2	0xbe2223da	-0.15833989
3	0x3f2b0a08	0.6681218
4	0xbdbdbb1f	-0.09264206

fc_11_MatMul_W f4 [3, 2]
0	0xbd97d8e1	-0.07414413
1	0xbe0c9d80	-0.13731956
2	0x3f0d1661	0.5511227
3	0xbe7cb5d8	-0.24678743
4	0x3f60e669	0.8785158
5	0xbe01555a	-0.12630215

fc_11_Add_B f4 [2]
0	0x3d853759	0.06504697
1	0x3d9987d2	0.07496609

fc_12_MatMul_W f4 [1, 2]
0	0xbf8aa976	-1.0832965
1	0x4023c401	2.5588381

fc_12_Add_B f4 [2]
0	0x3d853759	0.06504697
1	0x3d9987d2	0.07496609

fc_10_MatMul_W f4 [2, 1]
0	0x3e39ef65	0.18157728
1	0x3d91e5dd	0.07123921
