7. RESULTS/3. PRUNING/PrunedTinyFC.onnx (onnx, 10813 bytes, 52 tensors)

fc_proj_in_MatMul_W f4 [3, 2]
0	0xc016dab8	-2.3570995
1	0x4033c2c3	2.8087623
2	0x4036d8a7	2.8569734
3	0xbfaf772a	-1.3708241
4	0x3ff6c55e	1.9278982
5	0x3f76c687	0.9639668

fc_proj_in_Add_B f4 [2]
0	0x00000000	0.0
1	0x00000000	0.0

fc_proj_out_MatMul_W f4 [2, 32]
0	0xbe38fb9c	-0.18064731
1	0xbec4510b	-0.3834308
2	0xbe94978d	-0.29021874
3	0xbd24d58c	-0.040242717
4	0xb9e60511	-0.00043872793
5	0x3e8376fc	0.25676715
6	0x3e1bd43c	0.1521768
7	0x3daa7f7b	0.08325096
8	0x3e11001c	0.14160198
9	0x3d90b027	0.070648484
10	0xbe386bbf	-0.18009852
11	0x3e33d61c	0.17562145
12	0x3d96f01e	0.073700175
13	0xbd25bc0f	-0.04046255
14	0xbde10da1	-0.10988928
15	0x3d3c61e8	0.04599181
16	0xbe8f8659	-0.28032187
17	0xbea32990	-0.31867647
18	0xbe864c2c	-0.2622999
19	0x3e2e6b0b	0.17033021
20	0xbdcdd858	-0.1005103
21	0x3d38fa9e	0.045160882
22	0x3d730613	0.059331965
23	0x3e2bc64d	0.16774864
24	0xbd7f85f6	-0.062383614
25	0x3db2c209	0.087284155
26	0x3d82919a	0.063754275
27	0xbe494ddf	-0.19658612
28	0x3e285787	0.16439639
29	0xbe5848ee	-0.2112157
30	0xbe8ee86f	-0.27911708
31	0x3d6e5c63	0.058193576
32	0x3e6daae0	0.23209715
33	0x3ebff343	0.3749028
34	0xbd6b193f	-0.057397123
35	0xbe94e5dc	-0.2908162
36	0x3ea5c502	0.32376868
37	0x3e650e3f	0.22368716
38	0xbd0066b1	-0.031347934
39	0x3d208c76	0.039196454
40	0xbea5fc58	-0.32419086
41	0xbdce89af	-0.10084855
42	0xbdbc052f	-0.09180676
43	0x3e2a8cec	0.1665532
44	0xbe314070	-0.17309737
45	0xbd31cce0	-0.043408275
46	0xbdfc80ce	-0.12329255
47	0x3d93dfe8	0.07220441
48	0xbd6d8856	-0.05799135
49	0x3ce4c782	0.027927164
50	0xbe16fefe	-0.1474571
51	0x3db4a552	0.08820595
52	0xbdc16825	-0.09443692
53	0x3eb2be25	0.34910694
54	0xbe12a52e	-0.14320824
55	0xbd6a3b10	-0.057185233
56	0x3e036f1f	0.12835358
57	0xbe8a4d72	-0.2701221
58	0x3e424331	0.18970944
59	0xbddcd39d	-0.107825495
60	0x3e289556	0.16463217
61	0xbd42a260	-0.047518134
62	0x3cba487a	0.022739638
63	0x3d1c30d4	0.038132504

fc_proj_out_Add_B f4 [32]
0	0xbea08b3a	-0.3135622
1	0x3ebb0ce5	0.36533275
2	0x3ec22894	0.37921584
3	0x3f149244	0.58035684
4	0xbf26b0ef	-0.6511373
5	0xbf18369c	-0.5945833
6	0x3e502e14	0.20330077
7	0x3e9ae02d	0.30249158
8	0x3e884956	0.2661845
9	0xbed1dddf	-0.40989587
10	0x3d580ccf	0.05274659
11	0xbf150f61	-0.5822659
12	0xbeb0b873	-0.34515724
13	0x3e485fa7	0.19567738
14	0x3ec5317c	0.38514316
15	0x3ddc5cc2	0.1075988
16	0xbdac6bea	-0.084190205
17	0x3e5c753e	0.215291
18	0x3eebb4e2	0.4603644
19	0xbef957c1	-0.48699763
20	0x3e2b5259	0.16730632
21	0xbf079a16	-0.5296949
22	0xbec20ff0	-0.37902784
23	0x3edaf2d7	0.42763397
24	0x3e74cf11	0.23907115
25	0x3f07710f	0.5290689
26	0xbf0f3a98	-0.5594878
27	0xbe71484a	-0.23562732
28	0xbe4b609d	-0.19861074
29	0x3ea091aa	0.31361133
30	0x3d688258	0.05676493
31	0x3ccb4228	0.02481182

fc_1_proj_in_MatMul_W f4 [3, 2]
0	0x3f2a26d1	0.6646548
1	0xbd578d78	-0.05262515
2	0x3f301852	0.6878711
3	0x3eb80cb9	0.35947207
4	0x3e715acc	0.23569793
5	0xbebbfc28	-0.36715817

fc_1_proj_in_Add_B f4 [2]
0	0x00000000	0.0
1	0x00000000	0.0

fc_1_proj_out_MatMul_W f4 [2, 8]
0	0x3e553252	0.20819977
1	0x3ea50010	0.3222661
2	0xbdceb8e2	-0.10093857
3	0x3ea22b7e	0.31673807
4	0xbe1ec743	-0.155057
5	0x3ecc4551	0.39896634
6	0xbd2cacdb	-0.042157035
7	0x3f3f1bec	0.7465198
8	0xbed61799	-0.4181488
9	0x3d83d184	0.06436446
10	0xbedcd057	-0.431277
11	0xbf31156a	-0.691733
12	0xbc893b11	-0.016751798
13	0xbdc0f3a6	-0.09421472
14	0x3da425dc	0.080150336
15	0x3ec035d9	0.37541083

fc_1_proj_out_Add_B f4 [8]
0	0xbf2cf71a	-0.6756455
1	0x3ef675c6	0.4813673
2	0xbf122928	-0.5709405
3	0x3fc6099e	1.5471685
4	0xbf97c427	-1.1856736
5	0x3f14ff38	0.5820193
6	0xc005196c	-2.0796766
7	0x3f4deafa	0.8043667

fc_2_proj_in_MatMul_W f4 [3, 2]
0	0x3d97952e	0.07401501
1	0x3ea201fc	0.3164214
2	0xbef58666	-0.479541
3	0xbe1fc9b2	-0.15604284
4	0xbaf30532	-0.0018540977
5	0xb892838c	-6.986325e-05

fc_2_proj_in_Add_B f4 [2]
0	0x00000000	0.0
1	0x00000000	0.0

fc_2_proj_out_MatMul_W f4 [2, 24]
0	0x3cede8fe	0.029041763
1	0x3d1d4794	0.03839834
2	0xbe3ec8b7	-0.18631254
3	0x3d5106a4	0.051031724
4	0xbd8dc635	-0.069225706
5	0x3ea1f44b	0.31631693
6	0x3ea5bd6f	0.3237109
7	0xbd048624	-0.03235449
8	0x3d8e7746	0.06956343
9	0x3e195c95	0.14976723
10	0x3ed75892	0.4205976
11	0xbeaa06fd	-0.33208457
12	0x3bf6b754	0.0075291786
13	0x3eb8373a	0.35979635
14	0x3c9c8dc6	0.019110572
15	0xbd257ee8	-0.04040423
16	0xbcb126c6	-0.021624934
17	0x3e15f42d	0.14643927
18	0x3d7790d1	0.060440842
19	0x3e8a3ccc	0.2699951
20	0xbedc1b8f	-0.42989776
21	0xbc9eff22	-0.019408766
22	0x3e07bdd6	0.1325601
23	0x3d4cba88	0.049982578
24	0x3e32f7d3	0.1747735
25	0xbd8b507c	-0.068024606
26	0x3e494c35	0.19657977
27	0xbba2a567	-0.004963565
28	0x3e9a10a6	0.30090827
29	0xbd7403e6	-0.05957403
30	0xbea7a01d	-0.32739344
31	0x3c220c36	0.009890607
32	0x3e8dc70d	0.27690926
33	0x3daf8220	0.08569741
34	0x3ebdeec0	0.37096214
35	0xbe527f11	-0.20556284
36	0x3ba73e21	0.005103842
37	0x3da0edb8	0.07857841
38	0x3e1970f3	0.14984493
39	0xbd7f8538	-0.062382907
40	0xbdaffade	-0.08592771
41	0xbd0f162a	-0.034933247
42	0xbcc0aa43	-0.023518687
43	0x3e0b9aec	0.13633317
44	0x3eed69d5	0.46369806
45	0x3d02b109	0.031907115
46	0x3eada7d1	0.33917096
47	0x3e87011d	0.26368037

fc_2_proj_out_Add_B f4 [24]
0	0x3f637add	0.8885935
1	0xbedabee5	-0.42723766
2	0xbe9a4317	-0.3012931
3	0xbe5b3c53	-0.2140973
4	0xbf408477	-0.75202125
5	0xbebb366d	-0.3656496
6	0x3e38d4e7	0.18049966
7	0xbd711136	-0.058854304
8	0x3e6eefe0	0.23333693
9	0xbd97153f	-0.07377099
10	0x3efb0a25	0.49031177
11	0xbf6bcde2	-0.9211103
12	0x3e534b3b	0.20634167
13	0xbef6f480	-0.48233414
14	0x3f24bc9a	0.64350283
15	0xbd472499	-0.048618887
16	0xbf2d432e	-0.67680633
17	0xbf10edfc	-0.56613135
18	0xbecbfc33	-0.3984085
19	0x3f6655d8	0.8997474
20	0x3d27150d	0.04079156
21	0xbf44768b	-0.7674338
22	0x3e5efa8f	0.21775268
23	0xbf87e2d7	-1.0616101

fc_3_proj_in_MatMul_W f4 [3, 2]
0	0xbb67b546	-0.003535585
1	0xbac774bb	-0.0015217284
2	0x3b703b07	0.0036656277
3	0x38a85e78	8.0284604e-05
4	0x3b7b2148	0.0038319398
5	0x398f438c	0.00027325412

fc_3_proj_in_Add_B f4 [2]
0	0x00000000	0.0
1	0x00000000	0.0

fc_3_proj_out_MatMul_W f4 [2, 6]
0	0x3e655155	0.22394307
1	0x3ebbad28	0.36655545
2	0xbe51a5fb	-0.20473473
3	0xbeebf920	-0.46088505
4	0x3d670df4	0.05640979
5	0x3f3f39d2	0.746976
6	0x3f184cac	0.5949199
7	0x3ec20538	0.37894607
8	0xbe9a0ad8	-0.30086398
9	0xbe7791f3	-0.24176769
10	0xbcd3364c	-0.025782727
11	0xbf181050	-0.5939989

fc_3_proj_out_Add_B f4 [6]
0	0xbf674b33	-0.9034912
1	0xbe05d8c8	-0.13070977
2	0x3fb02346	1.3760765
3	0xbf28ca9d	-0.65934163
4	0xbfa30f6a	-1.2739079
5	0x3c233ee3	0.009963724

fc_4_proj_in_MatMul_W f4 [32, 2]
0	0x3e771f01	0.24132921
1	0xbee4f9bd	-0.44721785
2	0xbe84a8e1	-0.25910094
3	0xbd033a75	-0.03203817
4	0xbf49f6f2	-0.78892434
5	0xbca06547	-0.019579543
6	0xbee55f25	-0.44799152
7	0x3ebca20c	0.36842382
8	0x3f40b57b	0.7527692
9	0xbf1918b5	-0.59803325
10	0x3f5d1d6f	0.8637304
11	0xbc4c8491	-0.012482778
12	0xbe17fd6f	-0.14842771
13	0x3e9ce4f4	0.30643427
14	0xbdf8e7dd	-0.121535994
15	0x3dbfeecb	0.09371718
16	0xbee67a0b	-0.45014986
17	0x3eb26c60	0.3484831
18	0x3e66c467	0.22535859
19	0xbd7210ef	-0.05909818
20	0xbef9fbde	-0.48824972
21	0xbe8248cb	-0.25446162
22	0x3f2783f5	0.65435725
23	0xbd1f18c4	-0.038841978
24	0x3dbb7f6e	0.09155165
25	0x3c5363a1	0.012902171
26	0xbee3f8ae	-0.44525665
27	0x3e343582	0.17598537
28	0xbf0a693c	-0.54066825
29	0x3d7f91a6	0.06239476
30	0xbe83b7ee	-0.25726265
31	0x3e0fd85b	0.14047377
32	0xbf3c6bff	-0.7360229
33	0xbeb44000	-0.35205078
34	0xbf237f5a	-0.638662
35	0xbd3bc011	-0.045837466
36	0xbf5c8120	-0.8613453
37	0xbd6ee7fe	-0.058326714
38	0x3ec3c55a	0.38236505
39	0x3d879e0b	0.06621941
40	0xbee19af1	-0.44063523
41	0xbd22cc33	-0.03974552
42	0x3ee6fbad	0.45113888
43	0xbf0ec3b9	-0.557674
44	0x3e7b99af	0.24570344
45	0xbdd97954	-0.10618845
46	0x3a10d75a	0.0005525254
47	0x3e9154b8	0.28384948
48	0xbe45646e	-0.19276592
49	0x3c478c32	0.012179421
50	0xbec4cd77	-0.38438007
51	0x3eb1a2ba	0.34694463
52	0x3f39b8e2	0.72547734
53	0xbe6f06df	-0.23342465
54	0xbf4d94b5	-0.80305034
55	0xbe15830d	-0.14600773
56	0x3f4db7bc	0.8035848
57	0xbd63b357	-0.055590954
58	0xbf0b4ad7	-0.5441107
59	0x3daeb049	0.085297175
60	0xbf055aed	-0.52091867
61	0xbe9e74c9	-0.30948475
62	0x3e1947d5	0.14968808
63	0x3dca125e	0.098667845

fc_4_proj_in_Add_B f4 [2]
0	0x00000000	0.0
1	0x00000000	0.0

fc_4_proj_out_MatMul_W f4 [2, 16]
0	0xbe8477e4	-0.2587272
1	0xbea3a5ef	-0.31962535
2	0x3ea0c4fc	0.31400287
3	0x3eb3380f	0.35003707
4	0xbcc35864	-0.023845859
5	0x3c033f07	0.008010632
6	0x3e890c26	0.2676708
7	0xbe898da0	-0.26865864
8	0xbe53cc4b	-0.206834
9	0x3ea4cd2f	0.32187793
10	0x3e96613b	0.29371056
11	0x3e138fe2	0.14410356
12	0xbe002f15	-0.1251796
13	0xbe81045a	-0.25198632
14	0x3e981a05	0.2970735
15	0x3e57f793	0.21090536
16	0xbe15fdc9	-0.14647593
17	0xbc0fb8e7	-0.0087721115
18	0x3eb4ca8e	0.35310787
19	0xbe05a124	-0.13049752
20	0xbea04df5	-0.31309476
21	0xbe9a7245	-0.30165306
22	0xbe53a22a	-0.2066733
23	0x3c11bd3e	0.0088952165
24	0x3e6602de	0.22462031
25	0xbda95cd7	-0.08269661
26	0x3e360df6	0.17778763
27	0xbe7317d7	-0.23739563
28	0xbe6bd824	-0.2303167
29	0x3f030acf	0.5118837
30	0x3da25462	0.07926251
31	0x3ebe6c8a	0.37192184

fc_4_proj_out_Add_B f4 [16]
0	0xbecbddc3	-0.39817628
1	0xbe9349be	-0.28767198
2	0x3eb2f3e5	0.34951702
3	0x3e2cf554	0.1689046
4	0x3eba43cb	0.36379847
5	0x3eb5c429	0.3550122
6	0x3f0d503c	0.5520055
7	0xbed171f2	-0.40907246
8	0xbead9cd7	-0.33908722
9	0x3eec800e	0.46191448
10	0x3e97e766	0.2966873
11	0x3eb984ba	0.36234075
12	0xbed418c2	-0.4142514
13	0xbede5a7a	-0.43428403
14	0x3e6d2316	0.23157915
15	0xbdc03ea2	-0.09386946

fc_6_proj_in_MatMul_W f4 [16, 2]
0	0x3e47a52a	0.19496599
1	0x3d8e92c9	0.06961591
2	0x3edd405c	0.43213165
3	0x3e84ae31	0.25914147
4	0xbf2dc4c7	-0.67878383
5	0xbe866145	-0.26246086
6	0xbef62b98	-0.48080134
7	0x3e8cb38d	0.27480736
8	0xbed4026d	-0.414081
9	0x3ee3fcc0	0.4452877
10	0x3e9cdb63	0.3063613
11	0x3cec8e2e	0.02887639
12	0x3c6901b8	0.014221601
13	0xbd3cc154	-0.04608281
14	0x3f2d7c13	0.6776745
15	0xbe4c81ed	-0.19971438
16	0x3f01de9a	0.5073029
17	0xbdf77615	-0.12083069
18	0xbf437644	-0.76352334
19	0x3f10a27a	0.5649792
20	0xbf017949	-0.5057569
21	0xbe0c3aa7	-0.13694249
22	0xbef92cff	-0.48667142
23	0x3ee74e0b	0.4517673
24	0xbf0c1ca3	-0.54731196
25	0x3f31ef21	0.69505507
26	0x3e18082d	0.14846869
27	0xbecd1577	-0.4005544
28	0xbed57502	-0.41690832
29	0xbece8377	-0.40334675
30	0xbf2b03a1	-0.6680241
31	0xbea8938b	-0.32925066

fc_6_proj_in_Add_B f4 [2]
0	0x00000000	0.0
1	0x00000000	0.0

fc_6_proj_out_MatMul_W f4 [2, 8]
0	0xbf02b238	-0.5105319
1	0x3edb95ce	0.4288773
2	0xbf2d077e	-0.6758956
3	0xbe2141b1	-0.15747716
4	0xbe31338b	-0.17304818
5	0xbda46af5	-0.08028213
6	0x3dd243a0	0.10266805
7	0x3e27cf97	0.16387783
8	0xbe858675	-0.26079145
9	0xbed3e812	-0.41387993
10	0xbe1b4142	-0.15161613
11	0x3f182078	0.59424543
12	0xbe57b164	-0.21063763
13	0xbd534829	-0.05158249
14	0xbf018340	-0.50590897
15	0x3e92426b	0.28566298

fc_6_proj_out_Add_B f4 [8]
0	0xbf239e63	-0.63913554
1	0x3eb6e59a	0.35722047
2	0xbec47cd3	-0.38376483
3	0x3cedfb2e	0.029050436
4	0xbeb1aeff	-0.34703824
5	0x3e342a77	0.17594324
6	0x3e273cbe	0.16331765
7	0x3eb981c0	0.36231804

fc_8_proj_in_MatMul_W f4 [8, 2]
0	0x3f4adbae	0.79241455
1	0x3e987afe	0.29781336
2	0x3f71859c	0.94344497
3	0x3ca5cd48	0.020239487
4	0x3f3f0ebc	0.7463186
5	0x3e814780	0.25249863
6	0xbf8ef1d2	-1.1167548
7	0xbe90d121	-0.28284553
8	0xbea991ae	-0.33118957
9	0x3d8d9728	0.069135964
10	0x3ece4ac2	0.4029141
11	0x3e00b78f	0.12570022
12	0x3e276624	0.16347557
13	0xbe18e20a	-0.14929977
14	0x3fbe0c90	1.4847584
15	0x3e2c821a	0.16846505

fc_8_proj_in_Add_B f4 [2]
0	0x00000000	0.0
1	0x00000000	0.0

fc_8_proj_out_MatMul_W f4 [2, 4]
0	0xbf0bffb3	-0.5468704
1	0x3dab2011	0.083557256
2	0x3e2ecb98	0.17069852
3	0x3f50bb79	0.8153606
4	0x3e1499a7	0.14511739
5	0xbf0c2739	-0.5474735
6	0xbf432b1f	-0.7623767
7	0x3ea04715	0.3130423

fc_8_proj_out_Add_B f4 [4]
0	0x3db795cd	0.08964119
1	0xbec10448	-0.3769858
2	0xbee657e0	-0.44988918
3	0xbe8d0665	-0.2754394

fc_13_proj_in_MatMul_W f4 [8, 2]
0	0x3eb4730f	0.35244033
1	0x3f20d60f	0.6282663
2	0xbf55bed2	-0.83494294
3	0x3f590131	0.8476744
4	0x3e96afe6	0.29431075
5	0x3edb8dc1	0.42881587
6	0x3f0738fa	0.52821314
7	0xbedb02ec	-0.42775667
8	0x3eceff13	0.4042898
9	0xbf36d4b4	-0.7141831
10	0xbe4f1cb4	-0.20225793
11	0x3f3fe55c	0.7495935
12	0xbe9e0fd4	-0.3087145
13	0x3f171db0	0.59029675
14	0xbef83d60	-0.48484325
15	0x3e423397	0.18964992

fc_13_proj_in_Add_B f4 [2]
0	0x00000000	0.0
1	0x00000000	0.0

fc_13_proj_out_MatMul_W f4 [2, 4]
0	0x3edd180c	0.4318241
1	0xbdf83dff	-0.121212
2	0xbeb22d30	-0.348001
3	0x3f52c021	0.82324415
4	0xbf2ce3a9	-0.6753488
5	0x3dc154c6	0.094399974
6	0x3eee0851	0.4649072
7	0x3f108e4f	0.56467146

fc_13_proj_out_Add_B f4 [4]
0	0x3e04d328	0.12971175
1	0xbe89e5b5	-0.26933065
2	0xbee6bdd4	-0.45066702
3	0xbe13ec5c	-0.14445633

fc_5_proj_in_MatMul_W f4 [24, 1]
0	0xbdfa0736	-0.122084066
1	0xb935df30	-0.00017344649
2	0x3e60c554	0.21950275
3	0xb9b15575	-0.0003382374
4	0x3ee66164	0.44996178
5	0x3ae0d125	0.0017152174
6	0xbee5c427	-0.44876215
7	0x3a4a00b3	0.00077057927
8	0xbb47f91c	-0.003051347
9	0xbd1d5c0c	-0.03841786
10	0xbeb57796	-0.354428
11	0x3e298d57	0.16557823
12	0xbb127d9f	-0.0022352708
13	0x3cd1ace2	0.025595132
14	0xbd1915a5	-0.037374157
15	0xba14fd84	-0.0005683529
16	0x3d0b4464	0.03400077
17	0x3dc8177c	0.09770104
18	0x3d88760e	0.06663142
19	0xbe016ce8	-0.126392
20	0x3ca2bc78	0.01986526
21	0x3e8abf82	0.27099234
22	0x3a086e76	0.0005204448
23	0x3e409423	0.1880651

fc_5_proj_out_MatMul_W f4 [1, 12]
0	0xbda3eca4	-0.0800412
1	0x3ba15105	0.0049229884
2	0x3d1a71d7	0.037706222
3	0x3ee64214	0.4497229
4	0x3e5d59da	0.21616307
5	0x3f0d9be3	0.5531599
6	0xbf046e51	-0.5173083
7	0xbe021ff2	-0.12707499
8	0xbec39027	-0.38195917
9	0xbd64c326	-0.05585017
10	0x3d13be5c	0.036070213
11	0x3d649f15	0.055815775

fc_5_proj_out_Add_B f4 [12]
0	0xbe42302e	-0.18963692
1	0xbed87c61	-0.42282394
2	0x3e7c4d9e	0.24638984
3	0x3eef175f	0.46697518
4	0x3e9601d7	0.2929828
5	0x3effe411	0.49978688
6	0xbeccd7ed	-0.40008488
7	0xbe68b784	-0.22726256
8	0xbf2ad59e	-0.66732204
9	0x3e940c84	0.289158
10	0x3e490c5c	0.19633621
11	0x3d8a95cb	0.06766852

fc_7_proj_in_MatMul_W f4 [12, 1]
0	0x3e3cbc06	0.184311
1	0xbe08eb91	-0.13371111
2	0x3df35130	0.1188072
3	0x3cfe2082	0.03102136
4	0xbf045f9c	-0.5170839
5	0xbee6e552	-0.45096833
6	0x3d0a0675	0.033697564
7	0xbd9f7d19	-0.07787532
8	0x3de081fd	0.10962293
9	0x3cc2ccb3	0.023779249
10	0x3e6461c4	0.2230292
11	0xbdc7e058	-0.09759587

fc_7_proj_out_MatMul_W f4 [1, 6]
0	0x3dc912a1	0.09818006
1	0xbf29033f	-0.6602058
2	0x3e0b057a	0.13576308
3	0x3f33ccda	0.70234454
4	0xbe24687f	-0.16055487
5	0x3e057b0f	0.13035224

fc_7_proj_out_Add_B f4 [6]
0	0xbf376884	-0.71643853
1	0xbeda7a5c	-0.42671478
2	0x3e7bca8a	0.24588981
3	0xbf148531	-0.58015734
4	0xbf040111	-0.5156413
5	0xbee0122a	-0.43763858

fc_9_proj_in_MatMul_W f4 [6, 1]
0	0xbe2752d3	-0.16340189
1	0xbcf32c8a	-0.029684324
2	0x3de7162c	0.11283526
3	0x3da58c43	0.080833934
4	0xbd4568b6	-0.048195563
5	0xbd0bbc39	-0.03411505

fc_9_proj_out_MatMul_W f4 [1, 3]
0	0x3f5bd081	0.85865027
1	0x3eee3bb6	0.4652993
2	0x3e5c23a0	0.21497965

fc_9_proj_out_Add_B f4 [3]
0	0xbeac5b93	-0.33663616
1	0xbd9a6411	-0.075386174
2	0x3ed443fb	0.41458115

fc_14_proj_in_MatMul_W f4 [6, 1]
0	0x3d9a2e32	0.07528342
1	0x3e56688f	0.20938323
2	0x3ea435f3	0.3207241
3	0xbf49ba5a	-0.78799975
4	0xbe50df1a	-0.20397606
5	0xbe183c8a	-0.14866844

fc_14_proj_out_MatMul_W f4 [1, 3]
0	0xbeba4422	-0.36380106
1	0x3e9599e6	0.29218978
2	0x3f626c22	0.8844625

fc_14_proj_out_Add_B f4 [3]
0	0xbe950ad4	-0.29109824
1	0xbc68b9f7	-0.014204494
2	0x3ed7a07c	0.42114627

fc_11_proj_in_MatMul_W f4 [4, 2]
0	0xbeb76727	-0.35820886
1	0x3ca3dc80	0.020002604
2	0x3e6e5b09	0.23276915
3	0x3ee86593	0.45389995
4	0xbf32ddb7	-0.6986956
5	0xbf31dd86	-0.6947864
6	0x3ea3c298	0.319844
7	0xbe859b7e	-0.26095194

fc_11_proj_in_Add_B f4 [2]
0	0x00000000	0.0
1	0x00000000	0.0

fc_11_proj_out_MatMul_W f4 [2, 2]
0	0xbf638479	-0.8887401
1	0x3eeab4e4	0.45841134
2	0xbeeab4e4	-0.45841134
3	0xbf638479	-0.8887401

fc_11_proj_out_Add_B f4 [2]
0	0xbe99a292	-0.30006844
1	0xbe066090	-0.13122773

fc_12_proj_in_MatMul_W f4 [3, 1]
0	0xbee1c7b0	-0.44097662
1	0xbf1a0a3d	-0.6017187
2	0xbe812863	-0.25226125

fc_12_proj_out_MatMul_W f4 [1, 2]
0	0xbf61f120	-0.8825855
1	0xbef0b7c0	-0.4701519

fc_12_proj_out_Add_B f4 [2]
0	0xbe99a292	-0.30006844
1	0xbe066090	-0.13122773

fc_10_proj_in_MatMul_W f4 [2, 1]
0	0x3d7cd85b	0.06172977
1	0xbdfbb00c	-0.12289438
